runs/cartpole_slower_decay.pt (torch, 9344 bytes, 4 tensors)

fc1.weight f4 [256, 4]
0	0x3e917036	0.28405923
1	0x3e0ac86c	0.13553017
2	0xbee78728	-0.45220304
3	0x3e6a8d62	0.22905496
4	0x3d205870	0.03914684
5	0xbfc090ab	-1.5044149
6	0xc0a4d71c	-5.1512585
7	0xc01b9ba3	-2.4313743
8	0xbd9184e4	-0.07105425
9	0x3fa8f3cf	1.3199404
10	0x40ddcaef	6.931022
11	0x4007c5b6	2.1214423
12	0x3d7c91fc	0.06166266
13	0xbd1dbce0	-0.038510203
14	0xbe9c654a	-0.30546027
15	0xbbf1b54b	-0.007376348
16	0xbaccce47	-0.001562544
17	0x3ee1ae30	0.44078207
18	0xbf231a04	-0.6371157
19	0xbd485d46	-0.048917077
20	0xbe61e447	-0.22059737
21	0xbe55c399	-0.20875396
22	0xbf885857	-1.0651959
23	0xbd332151	-0.043732945
24	0x3db6e56a	0.08930476
25	0x3d87c79d	0.0662987
26	0xbf10ddc0	-0.56588364
27	0xbeb0fd35	-0.34568182
28	0x3d9a47f2	0.07533254
29	0x3d1be9c3	0.03806473
30	0xbf716af6	-0.94303834
31	0x3dcf6276	0.10126202
32	0xbf6896a0	-0.90854836
33	0x3f950261	1.1641351
34	0x40d6401d	6.6953263
35	0x401a9858	2.4155483
36	0x3f23b84d	0.63953096
37	0x3fbc89a8	1.4729509
38	0x40c1ec84	6.0601215
39	0x3fd0f642	1.6325152
40	0x3e766996	0.24063715
41	0xbce44eca	-0.0278696
42	0xbf4321d5	-0.762235
43	0x3e789237	0.24274527
44	0xbf189e1c	-0.59616256
45	0xc02f3620	-2.7376785
46	0xc0b704c8	-5.7193336
47	0xbfe40b8a	-1.7816021
48	0xbe042dd0	-0.12908101
49	0x3e3b11f1	0.18268563
50	0x3dc2b636	0.0950741
51	0xbe6d624e	-0.23182032
52	0xbe0f07d9	-0.13967837
53	0x3f956fab	1.1674703
54	0x40d92885	6.786196
55	0x3fe8920a	1.8169568
56	0xbebed491	-0.3727155
57	0xbf04cc65	-0.5187438
58	0xbf82093e	-1.015907
59	0xbe31f0bf	-0.17376994
60	0x3e3da907	0.1852151
61	0x3d6d6666	0.057958983
62	0xbea8aa18	-0.3294227
63	0xbdf22cb9	-0.118249364
64	0xbb906266	-0.0044062613
65	0xbdc39fe6	-0.095519826
66	0xbe34288d	-0.17593594
67	0xbed5e826	-0.41778678
68	0xbdc900f5	-0.09814636
69	0xbed738fb	-0.4203566
70	0xbf36c183	-0.71389025
71	0xbf2380b7	-0.6386828
72	0xbe783eb2	-0.24242666
73	0xbef9088e	-0.4863934
74	0xbeb9e131	-0.3630462
75	0xbf039466	-0.51398313
76	0xbf8196eb	-1.0124182
77	0xbf515bf9	-0.81780964
78	0xbf7df58d	-0.99202806
79	0xbe005c69	-0.12535252
80	0xbec62b6a	-0.38704997
81	0x3fa31123	1.2739605
82	0x400202e4	2.0314264
83	0xbebc21e6	-0.36744612
84	0xbc786aa3	-0.015162143
85	0x3ebe4bef	0.37167308
86	0x3f83bdba	1.0292275
87	0xbe93482f	-0.2876601
88	0xbdef91c8	-0.116977274
89	0x3e039850	0.12851071
90	0x3ca1a500	0.019731998
91	0x3d4a0d10	0.049328864
92	0x3da7c0d9	0.0819108
93	0x3e54221b	0.20716135
94	0xbe4b2ecb	-0.19842069
95	0xbe9ce14d	-0.3064064
96	0xbee9ac33	-0.4563919
97	0xbf755f67	-0.958487
98	0xbfbef53f	-1.4918593
99	0xbe21c042	-0.15795997
100	0x3e77ba6f	0.24192213
101	0xbefdd6d1	-0.49577954
102	0xbf342784	-0.70372796
103	0x3e063cc2	0.13109115
104	0x3f05ed7b	0.5231549
105	0x400ecbcb	2.2311885
106	0x40c0f6e7	6.0301394
107	0x3ff45af2	1.9090254
108	0xbdebbb19	-0.115102954
109	0x3f8519ee	1.0398538
110	0x3fc75eff	1.5575866
111	0xbe702d50	-0.23454785
112	0x3fe6594c	1.7996001
113	0xbf7c1a6c	-0.98477817
114	0xc0a172c1	-5.045258
115	0xbf93ad21	-1.153721
116	0x3eb0f6f4	0.3456341
117	0xbed94dcc	-0.42442167
118	0xbe0a7e91	-0.13524844
119	0xbe78d7b8	-0.2430104
120	0xbecf2959	-0.40461233
121	0x3e8bce9f	0.27306077
122	0xbe7dfc89	-0.24803366
123	0xbe920582	-0.28519827
124	0xbe24d841	-0.1609812
125	0x3eece1f9	0.46266153
126	0xbefb3e53	-0.49070987
127	0xbb529aac	-0.0032135649
128	0xbfa454f8	-1.283843
129	0xbf89a64a	-1.0753872
130	0xc049c0cb	-3.1523921
131	0xbfa06e24	-1.2533612
132	0x3ee163e2	0.44021517
133	0xbd9141c0	-0.07092619
134	0x3e45569b	0.19271319
135	0xbe9e6e04	-0.3094331
136	0x3eef1d65	0.46702114
137	0xbef3ed52	-0.47642
138	0xbf881a19	-1.0632964
139	0xbe50a771	-0.20376374
140	0x3ebe2b18	0.37142253
141	0xbec28ead	-0.37999478
142	0xbecf3059	-0.40466574
143	0x3ccdd98c	0.025128148
144	0xbf7111b5	-0.94167644
145	0xbf489380	-0.7835007
146	0xbf9a4e41	-1.2055131
147	0xbe325759	-0.17416133
148	0x3e8d0c01	0.2754822
149	0xbf8584e5	-1.0431181
150	0xbfd2abdd	-1.6458699
151	0x3e9ec835	0.3101212
152	0xbe936abf	-0.28792378
153	0xbe97107d	-0.29504767
154	0xbd4aa270	-0.04947132
155	0xbde50d5b	-0.11184188
156	0xbf68dc58	-0.9096122
157	0xbf25e666	-0.64804685
158	0xbf31eeba	-0.6950489
159	0xbe4d4ec7	-0.20049582
160	0xbc79f542	-0.015256228
161	0x3e97ceea	0.2965005
162	0xbf175f60	-0.59129906
163	0xbd7af658	-0.061270088
164	0x3eda0620	0.42582798
165	0xbfbd59f5	-1.4793078
166	0xc0bdbd42	-5.9293528
167	0xbfdf3816	-1.7438991
168	0x3ef81d9b	0.48460087
169	0xbfccf195	-1.6011225
170	0xc0b69ea5	-5.706866
171	0xbfe8f9e5	-1.8201262
172	0xbe40365d	-0.18770738
173	0xbd757576	-0.059926473
174	0xbed203cd	-0.41018525
175	0xbed4385e	-0.41449255
176	0x3dbb807e	0.09155367
177	0xbe55a80f	-0.2086489
178	0xbf36edbd	-0.7145651
179	0xbe95485a	-0.29156762
180	0xbea37727	-0.31926844
181	0xbe89ee26	-0.26939505
182	0xbf4adfa1	-0.7924748
183	0xbeca444a	-0.39505225
184	0xbeb66f07	-0.35631582
185	0x3e9a7751	0.30169156
186	0xbf74b3a3	-0.95586604
187	0x3e618684	0.2202397
188	0x3e891a11	0.267777
189	0xbfbdcded	-1.4828469
190	0xc000a76a	-2.0102181
191	0x3dbbf3c3	0.09177353
192	0x3ed69750	0.41912317
193	0xbeb7813a	-0.3584078
194	0xbf274ec8	-0.65354586
195	0xbf25809d	-0.64649373
196	0xbf391c5c	-0.723089
197	0xbfb9083b	-1.4455637
198	0xc093c7b4	-4.618128
199	0xbfdd0094	-1.7265801
200	0x3db89969	0.09013636
201	0xbe660733	-0.22463684
202	0xbeefdfe5	-0.46850505
203	0x3e1c2338	0.1524781
204	0xbeebe694	-0.46074355
205	0x3e9de09b	0.30835423
206	0xbee997ac	-0.4562353
207	0x3dfd39cc	0.123645395
208	0xbf01e6d3	-0.50742835
209	0x3fcca2f1	1.5987226
210	0x40c21120	6.0645905
211	0x3ff9949b	1.9498476
212	0xbe9374ff	-0.28800198
213	0xbebcdb37	-0.36885998
214	0xbec3d7cd	-0.3825058
215	0x3e1bfd84	0.15233427
216	0x3fffe87a	1.9992821
217	0xbe99e12c	-0.30054605
218	0xc09cf1ed	-4.904532
219	0xbf711643	-0.94174594
220	0xbeef7a03	-0.46772775
221	0xbdc2c9d7	-0.09511154
222	0xbdb9dcc7	-0.09075313
223	0xbd8c266a	-0.068432644
224	0xbfdfcc1a	-1.7484162
225	0x3f2f8115	0.6855634
226	0x40aeda08	5.464115
227	0x3fadf00a	1.3588879
228	0x3f3825c0	0.719326
229	0x3ff51b7c	1.9149013
230	0x40cbbffb	6.367185
231	0x3fe2c7ef	1.7717265
232	0x3ed3cbae	0.41366333
233	0xbfaf72d1	-1.3706914
234	0xc0c605c6	-6.188205
235	0xc00746ae	-2.113689
236	0xbe71e78f	-0.23623489
237	0x3c271d53	0.0101998625
238	0xbd8cba9a	-0.06871529
239	0x3d26d398	0.040729135
240	0x400ee7d3	2.2328994
241	0xbdfa280a	-0.12214668
242	0xc0604062	-3.5039296
243	0xbfcd9aba	-1.6062844
244	0xbed15de2	-0.4089194
245	0x3fa33d55	1.2753092
246	0x40d21c4c	6.565954
247	0x3fed6b06	1.8548286
248	0x3f29434f	0.6611833
249	0xbfb1225e	-1.3838613
250	0xc0ca1d86	-6.316104
251	0xbffa8827	-1.95728
252	0xbf0ca528	-0.5493951
253	0x3f183e7d	0.5947035
254	0x4003368c	2.0502043
255	0x3df260f0	0.118348956

fc1.bias f4 [256]
0	0x3f9919a7	1.1960953
1	0xbfc936ce	-1.571985
2	0x4005edf9	2.0926497
3	0x3f98c29e	1.1934392
4	0x3f9e9f98	1.2392454
5	0x3fcc3906	1.5954902
6	0x3fc614c4	1.5475087
7	0x3f9ca0d3	1.223658
8	0xbfd0ab0e	-1.6302202
9	0xbfb03aac	-1.3767905
10	0x3fa39f28	1.2782946
11	0xbf0c66c0	-0.54844284
12	0x3fa26a7d	1.2688748
13	0xbfdd9edc	-1.7314105
14	0x3fc64b3b	1.5491709
15	0x3f9f06c3	1.2423939
16	0x3fb442fc	1.4082942
17	0x3fb7939f	1.4341925
18	0x3fbb8b96	1.4651973
19	0x3f751384	0.95732903
20	0x3e9e5461	0.3092375
21	0x3fa193e2	1.2623255
22	0xbec946e0	-0.39311886
23	0x3fc88312	1.5665
24	0x3f76e1b6	0.9643816
25	0x3fd2f873	1.6482071
26	0xbfad0abf	-1.3518904
27	0x3da2c4ac	0.079476684
28	0xbfe84f04	-1.8149114
29	0x3f998aed	1.1995522
30	0x3fb6878d	1.4260117
31	0x3f86a226	1.0518234
32	0xbf3455a6	-0.7044319
33	0x3fae9028	1.3637743
34	0x3fb86d03	1.4408268
35	0x3fb6b514	1.4274011
36	0x3f565d93	0.8373653
37	0x3f3817c4	0.71911263
38	0x3fc430e5	1.5327421
39	0x3f5480c8	0.83009005
40	0x3f945f18	1.159152
41	0xbfd8bc9f	-1.6932563
42	0xbfd7f33e	-1.6871107
43	0x3fb41bb9	1.407096
44	0x3faf75f4	1.3707871
45	0x3fcddaca	1.6082394
46	0x3faa0a7b	1.3284448
47	0x3df1ba04	0.11803058
48	0x3fcf10fb	1.6177057
49	0x3fd7b6be	1.6852643
50	0x3fa9f0fe	1.327667
51	0x3fc8a454	1.5675149
52	0xbfebb6f4	-1.8415208
53	0x3fcb33f7	1.5875233
54	0xbfd16b9b	-1.6360964
55	0x3fba7e73	1.4569839
56	0xc00926ce	-2.1429935
57	0xbf7b1fee	-0.98095596
58	0xbfcb76b2	-1.5895598
59	0x3fd0eb17	1.6321744
60	0xbf8a8fa6	-1.0825088
61	0xbfe3b02c	-1.7788138
62	0x40117965	2.2730343
63	0x3ed37a1b	0.41304097
64	0xbf976db9	-1.183036
65	0x3fc2e01a	1.522464
66	0x3fc7b118	1.560092
67	0x3f18aac9	0.596356
68	0xbfaf97d7	-1.3718213
69	0x3f001728	0.50035334
70	0x40090992	2.1412091
71	0x3fb33d4e	1.4003084
72	0x3fb211fa	1.3911736
73	0x3f371e3d	0.71530515
74	0xbfc8521d	-1.5650059
75	0x3fbb5409	1.463502
76	0x3fbe15ee	1.4850442
77	0x3fcf6f7c	1.6205897
78	0x3f962c4d	1.173227
79	0xbfd9ab6a	-1.7005436
80	0x3fb03329	1.3765613
81	0x3fc93c3f	1.5721511
82	0x3fde12c9	1.7349483
83	0x3f9c2ef5	1.220183
84	0x3f95775a	1.1677048
85	0x3fc1f53c	1.5152965
86	0x3fb5e12c	1.4209342
87	0x3fbcee83	1.4760288
88	0x3fc3cdc3	1.5297168
89	0x3faa89b3	1.3323272
90	0x3ee43fbb	0.44579872
91	0x3fb7a22a	1.4346364
92	0xbfcec7f5	-1.6154772
93	0xbf91376e	-1.1345041
94	0x3fd1e022	1.6396525
95	0x3fc08f65	1.504376
96	0x3fb682b3	1.4258636
97	0x3f8d1813	1.1022972
98	0x3fc7ce16	1.5609767
99	0x3fa2c0fb	1.2715143
100	0x3f8eb851	1.1149999
101	0x3f9a3081	1.2046052
102	0x3fd8d0d3	1.6938728
103	0x3f803f8b	1.0019392
104	0x3f8f5879	1.1198875
105	0xbfcf4c0c	-1.6195083
106	0x3fce5b7e	1.6121671
107	0x3faab139	1.3335334
108	0x3fb3984b	1.4030851
109	0x3fab4930	1.338171
110	0x3fb89ab6	1.4422214
111	0x3fa83706	1.3141792
112	0x3fccc7b2	1.5998442
113	0x3fca6a2c	1.5813651
114	0x40058386	2.0861526
115	0xbff628a0	-1.9231148
116	0x3f94427d	1.1582791
117	0x3fc2fd98	1.5233641
118	0x3f939f29	1.1532947
119	0x3fdbf7eb	1.7185034
120	0x3fcc0814	1.5939965
121	0xbfff5b72	-1.9949782
122	0xbfe7af6a	-1.8100407
123	0x3fb7552c	1.4322867
124	0x3fb892ba	1.4419777
125	0x3f9035df	1.126644
126	0xbfbf46ea	-1.4943516
127	0x3f533cf5	0.8251489
128	0x3fc242bb	1.5176615
129	0x3f980964	1.1877866
130	0xbfc351aa	-1.5259297
131	0xc006e321	-2.1076128
132	0x3f4c71b2	0.79860985
133	0x3f9fef5d	1.2494923
134	0xbeea81a5	-0.45802036
135	0x3fc5239f	1.5401496
136	0xbfd38df4	-1.6527696
137	0xbf399d03	-0.72505206
138	0x400756ad	2.1146653
139	0x3fbf7b97	1.4959592
140	0xbfcc0d19	-1.5941497
141	0x3fd1f27a	1.6402123
142	0x3fcf055e	1.6173513
143	0xbfdfc132	-1.7480834
144	0xbfec56d9	-1.8464004
145	0x3fb24f74	1.3930497
146	0x3f84e350	1.038187
147	0xbfda81e3	-1.7070888
148	0x3fd1656a	1.6359074
149	0xc0046ad3	-2.06902
150	0x3fb9c890	1.4514332
151	0xbfa603a8	-1.2969866
152	0x3fbbda4e	1.4675996
153	0xbfd0867f	-1.6291045
154	0x3fa20fcf	1.2661074
155	0x3fa6afb6	1.3022373
156	0x3fa3ba99	1.279132
157	0xbfca5282	-1.5806429
158	0x3e50b665	0.20382078
159	0x3faaabc2	1.3333666
160	0x3fcd60d4	1.6045175
161	0x3fc00a82	1.5003207
162	0xbfd323d3	-1.6495308
163	0x3fcfaaab	1.6223959
164	0x3fc22fbd	1.5170819
165	0x3fc12d05	1.5091864
166	0xbfc17020	-1.5112343
167	0xbfc7b4a3	-1.5602001
168	0x3fc46a37	1.5344914
169	0x3fbc73d2	1.4722846
170	0x3fa12dd7	1.2592114
171	0x3f99d44a	1.201791
172	0xbfe4af90	-1.7866077
173	0x3fb1bcfd	1.38858
174	0x3f966fcf	1.1752871
175	0x3fc44d9c	1.5336185
176	0x3fc1bb93	1.5135368
177	0xbf9cb65b	-1.224315
178	0x3ffc6682	1.9718783
179	0x3fb6e05d	1.428722
180	0x3fce2e49	1.6107875
181	0x3f723498	0.946115
182	0x3faa3626	1.3297775
183	0xbf4000d2	-0.7500125
184	0x3fb008bb	1.3752664
185	0x3fcbad43	1.591225
186	0x3f9f2594	1.2433343
187	0x3f8ec215	1.1152979
188	0x3f9e6eff	1.2377623
189	0xbfe002fb	-1.750091
190	0x3f9e9e94	1.2392144
191	0x3fb7ff72	1.4374831
192	0x40045323	2.0675743
193	0x3f916d84	1.1361547
194	0x3fb2dfa4	1.39745
195	0x3fc71c20	1.5555458
196	0x3f995daf	1.1981715
197	0x3fa8d64a	1.3190396
198	0x3fb949aa	1.4475605
199	0xbf0a272f	-0.5396604
200	0x3fb07f56	1.378886
201	0x3fa35a7d	1.276199
202	0x3fa9b59e	1.325855
203	0x40028eda	2.039969
204	0x40126a92	2.2877545
205	0x3fa490cc	1.2856688
206	0xbf8969f2	-1.0735457
207	0x3fa74c74	1.3070207
208	0x3f9731e6	1.1812103
209	0x3fcf0f8a	1.6176617
210	0xbff25074	-1.8930802
211	0x3fb728af	1.4309291
212	0x3f9dabca	1.2318051
213	0x3fa61d2c	1.2977653
214	0x3fcba98b	1.5911115
215	0xbeb8734c	-0.36025465
216	0x3fc9ba31	1.5759946
217	0x3fa5d437	1.2955388
218	0x3f7200f7	0.9453272
219	0x3fec1d96	1.8446529
220	0x3f67539f	0.9036197
221	0xbf2a1160	-0.6643276
222	0x3fbedd56	1.4911296
223	0xbfc48aca	-1.5354855
224	0x3fb91ce1	1.4461938
225	0x3fa936b6	1.3219821
226	0x3fa9662b	1.3234304
227	0x3f8c06e7	1.0939606
228	0x3fc65117	1.5493497
229	0xbfc1efcc	-1.5151305
230	0xc000c1d0	-2.0118294
231	0xbfa1efce	-1.2651308
232	0xbfe3b2c3	-1.7788929
233	0x3f989eba	1.192344
234	0x3fb81572	1.4381545
235	0x3fa7596c	1.3074164
236	0x4008eb3f	2.1393583
237	0x3f9c7fc1	1.2226487
238	0x3fa2375f	1.2673148
239	0x3fa1d286	1.2642372
240	0x3fc76d3c	1.5580211
241	0x3f861388	1.047471
242	0xbfe57086	-1.7924964
243	0x3f82c0e5	1.0215117
244	0x3fcb0892	1.586199
245	0xbfd8873a	-1.6916268
246	0x3fa9451f	1.3224219
247	0xbff3686f	-1.9016246
248	0x3fd98e57	1.6996564
249	0x3fa6661a	1.2999909
250	0xbfcbfd7b	-1.5936731
251	0x3fb9bbd2	1.4510443
252	0x3fd479d2	1.6599677
253	0x3fc2bdc4	1.5214162
254	0xbfdbc0c3	-1.7168201
255	0xbfc7c9dd	-1.5608479

output.weight f4 [2, 256]
0	0x3f2cf8e6	0.6756729
1	0xbfdc783f	-1.7224196
2	0xc010b59f	-2.2610853
3	0x3f3a51a1	0.72780806
4	0x3f5347d3	0.8253147
5	0x3f36b6c8	0.7137265
6	0x3f2e9c19	0.68206936
7	0x3f4f5732	0.80992424
8	0xc0a8095d	-5.251143
9	0xc0513a76	-3.2691932
10	0x3f17ecf6	0.5934595
11	0xc023f30f	-2.5617101
12	0x3f5505b3	0.8321182
13	0xc069b38c	-3.6515837
14	0x3f33cf03	0.7023775
15	0x3f4965f4	0.78671193
16	0x3f49317c	0.7859113
17	0x3f3e0b13	0.7423565
18	0x3f4fd6a1	0.8118687
19	0x3f39841d	0.72467214
20	0x3e84cbf4	0.25936854
21	0x3f33cd1b	0.7023484
22	0x3c6dd0c0	0.014515102
23	0x3f540c3a	0.82831156
24	0xbf374419	-0.71588284
25	0x3f21adc5	0.63155776
26	0xc06a0107	-3.6563127
27	0x3e9e0be8	0.3086846
28	0xc03f8ff0	-2.9931602
29	0x3f39f546	0.7263988
30	0x3f5a79f9	0.85342366
31	0x3f277f46	0.6542858
32	0xbff388dd	-1.9026142
33	0x3f580dbf	0.84395975
34	0x3f271f08	0.65281725
35	0x3f31724f	0.69315046
36	0x3f3222a5	0.69584113
37	0x3fb749c7	1.431939
38	0x3f3f6fa0	0.747797
39	0x3f347c6e	0.70502365
40	0x3f6758c1	0.903698
41	0xc087631c	-4.2308483
42	0xc088bd7c	-4.2731304
43	0x3f39121a	0.72293246
44	0x3f430d30	0.76192
45	0x3f508a6f	0.8146123
46	0x3f4fcc05	0.81170684
47	0x3f7012a2	0.9377843
48	0x3f2ecb13	0.68278617
49	0xbfbdb540	-1.4820938
50	0x3f01325a	0.50467455
51	0x3f5f50b0	0.87232494
52	0xc085b784	-4.178652
53	0x3f17d276	0.5930551
54	0xc0279b42	-2.6188512
55	0x3f5058be	0.8138541
56	0xc00407a3	-2.062966
57	0xc07e320b	-3.9718044
58	0xc00538db	-2.0815952
59	0x3f58b768	0.84654856
60	0xc00356fa	-2.0521836
61	0xc0867c98	-4.202709
62	0xbff1b770	-1.8884106
63	0x3ec70a6b	0.38875136
64	0xc0006d0f	-2.0066564
65	0x3f433200	0.7624817
66	0x3f1fa2ba	0.62357676
67	0x3fcd86a0	1.6056709
68	0xc04d6775	-3.2094395
69	0xbf4b91c8	-0.7951932
70	0xbfe19837	-1.7624577
71	0x3f1eb4a9	0.61994416
72	0x3f5aac42	0.85419095
73	0x3d8b5b90	0.068045735
74	0xc0724655	-3.7855427
75	0x3f2cf0bd	0.6755484
76	0x3f4c207b	0.7973706
77	0x3f45a783	0.7720873
78	0x3ee4e305	0.44704452
79	0xc085ed68	-4.1852303
80	0x3f5b597c	0.8568342
81	0x3f3ce245	0.7378276
82	0x3f481be6	0.7816757
83	0x3f4894f0	0.7835226
84	0x3f0c29a2	0.54751027
85	0x3f50a58f	0.8150262
86	0x3f3c037f	0.73442835
87	0x3f2fe8e9	0.6871477
88	0x3f57ff12	0.8437358
89	0x3f368adf	0.7130565
90	0x3eaee037	0.34155437
91	0x3f2d89c9	0.6778837
92	0xc08088fe	-4.0167227
93	0xc0684fd5	-3.6298726
94	0x3f3e0dfc	0.7424009
95	0x3f37589e	0.71619594
96	0x3f4e8676	0.8067392
97	0x3f66b5d8	0.9012122
98	0x3f35126e	0.70731246
99	0x3f4149f7	0.75503486
100	0x3f34a90f	0.7057046
101	0x3f4a5ccc	0.79047847
102	0x3f36840a	0.71295226
103	0x3f6d277f	0.9263839
104	0x3f2d003c	0.6757848
105	0xc0277f6a	-2.6171517
106	0x3f3fa377	0.748588
107	0x3f2c3b1a	0.6727768
108	0x3f019e60	0.50632286
109	0xbfb34952	-1.400675
110	0x3f322848	0.69592714
111	0x3f3e947b	0.74445313
112	0x3f2a27ea	0.66467154
113	0x3f4e4bc3	0.80584353
114	0xbff6cf70	-1.9282055
115	0xc097d487	-4.7446933
116	0x3f5d2d11	0.8639689
117	0x3f2c8a6b	0.6739871
118	0x3f502787	0.81310314
119	0x3d647e07	0.05578425
120	0x3f444927	0.7667412
121	0xc025b11e	-2.5889354
122	0xc08731e6	-4.224841
123	0x3f3781b0	0.7168226
124	0x3f4992a0	0.78739357
125	0x3f445c6a	0.7670351
126	0xc092d194	-4.5880833
127	0x3f48cf9b	0.7844178
128	0x3f4e19bc	0.8050802
129	0x3f2e01cd	0.679715
130	0xc00fc684	-2.2464914
131	0xc05e70af	-3.4756277
132	0x3faa369a	1.3297913
133	0x3f3472c1	0.704876
134	0xbffeed4c	-1.9916167
135	0x3f31b4d8	0.6941657
136	0xc065e1a0	-3.591896
137	0xc08302ae	-4.094077
138	0xc00db02d	-2.213878
139	0x3f413d49	0.7548414
140	0xc07991e8	-3.8995304
141	0x3f295479	0.6614452
142	0x3f5114df	0.8167247
143	0xc094f6b2	-4.655114
144	0xc0155da3	-2.3338401
145	0x3f258a39	0.64664036
146	0x3f3a48d3	0.7276737
147	0xc002b5d8	-2.0423489
148	0x3f1c54b8	0.6106677
149	0xc05cbebc	-3.4491415
150	0x3f3444d4	0.70417523
151	0xc0579997	-3.3687494
152	0x3f386c42	0.7204019
153	0xc08bdb1a	-4.370496
154	0x3f295a8b	0.6615378
155	0x3f509492	0.814767
156	0x3f645b30	0.8920164
157	0xbfd53727	-1.6657456
158	0x3fd3407a	1.6504052
159	0xbfaf6849	-1.37037
160	0x3f2757b4	0.653682
161	0x3f68528b	0.9075095
162	0xc084a47e	-4.1450796
163	0x3f3730b1	0.7155867
164	0x3f3f79dd	0.74795324
165	0x3f08368a	0.5320822
166	0xc08597c3	-4.1747756
167	0xc05efd99	-3.4842284
168	0x3f2d1dd4	0.6762364
169	0x3f4d3dbe	0.80172336
170	0x3f22e9d8	0.6363807
171	0x3f20f4bf	0.6287345
172	0xc0663848	-3.5971851
173	0x3f4c0b5f	0.7970485
174	0x3f2d23d2	0.6763278
175	0x3f410b93	0.75408286
176	0x3f2d5436	0.6770662
177	0xc038e534	-2.8889894
178	0xc00aa24d	-2.166156
179	0x3f3c29dc	0.7350137
180	0x3f3ccd84	0.7375109
181	0x3f6f4b34	0.93474126
182	0x3f4470cd	0.7673462
183	0xc04d57fb	-3.208495
184	0x3f505913	0.81385916
185	0xbfa0b902	-1.255646
186	0x3f53c1fc	0.8271787
187	0x3f0e791a	0.55653536
188	0x3f492370	0.785697
189	0xc02facef	-2.74493
190	0x3f47ca5a	0.7804314
191	0x3f116a47	0.5680279
192	0xbfd1c406	-1.6387947
193	0x3f5b02a2	0.8555089
194	0x3f26b3c1	0.6511803
195	0x3f38efdd	0.72241
196	0x3f30c765	0.6905425
197	0x3f57f164	0.8435271
198	0x3f3ce6ea	0.73789847
199	0xbffaa736	-1.9582279
200	0x3f1dc2b7	0.61625236
201	0x3f47da1e	0.78067195
202	0x3f5207a4	0.8204291
203	0xbf840efe	-1.0317075
204	0xbf929a23	-1.1453289
205	0x3f3fed43	0.7497141
206	0xc0476812	-3.115727
207	0x3f41b740	0.7567024
208	0x3f3862d0	0.72025776
209	0x3f4af542	0.79280484
210	0xc08cfe45	-4.4060388
211	0x3f435de0	0.76315117
212	0x3f32bd61	0.6982022
213	0x3f2a6aaa	0.66569006
214	0x3f199f89	0.60009056
215	0xc00f92c3	-2.2433326
216	0x3f32d249	0.6985212
217	0x3f2a6535	0.6656068
218	0x3dc886c8	0.097913325
219	0xc009c012	-2.152348
220	0x3f842e47	1.0326623
221	0xbff0a0ee	-1.8799112
222	0x3f2c9910	0.67421055
223	0xc095902c	-4.673849
224	0x3f322c85	0.6959918
225	0x3f476851	0.7789355
226	0x3f4abc94	0.79194
227	0x3f2ae708	0.66758776
228	0x3f2dace8	0.6784196
229	0xc08cb5db	-4.397199
230	0xc00e8343	-2.2267616
231	0xc085d9de	-4.182845
232	0xc08751b9	-4.228726
233	0x3f33e62b	0.70273083
234	0x3f3c6e61	0.73605925
235	0x3f0882c2	0.5332452
236	0xbf9d5109	-1.2290355
237	0x3f5a7060	0.8532772
238	0x3eeba45c	0.46023834
239	0x3f1f0aae	0.6212567
240	0x3f4aadb6	0.7917131
241	0x3f352111	0.7075358
242	0xc08d9a55	-4.4250894
243	0xbf448f06	-0.76780736
244	0x3f551a39	0.8324314
245	0xc084c996	-4.1496077
246	0x3f05b3d0	0.522275
247	0xc086aca7	-4.2085757
248	0x3f26a271	0.65091616
249	0x3f58e5fe	0.8472594
250	0xbf957b07	-1.167817
251	0x3f335296	0.7004789
252	0x3f2e0bd5	0.67986804
253	0x3f56f4dc	0.83967376
254	0xbf9d5af3	-1.229338
255	0xc03637c5	-2.847154

output.bias f4 [2]
0	0x3f418cee	0.75605667
1	0x3f17e3e8	0.5933213
