runs/cartpole.pt (torch, 9240 bytes, 4 tensors)

fc1.weight f4 [256, 4]
0	0xbe28f8ec	-0.16501206
1	0x3cf1dd40	0.029524446
2	0x3e98d4b6	0.29849786
3	0x3ca0e080	0.0196383
4	0x3d68eed3	0.056868386
5	0xbf76c106	-0.9638828
6	0xc014bc85	-2.3240063
7	0xbf794f77	-0.9738688
8	0x3fc3feae	1.5312097
9	0x3d98c968	0.0746029
10	0xbf462b36	-0.77409685
11	0xbe902195	-0.2815062
12	0x3fdc7b64	1.7225156
13	0x3f736fe3	0.950926
14	0xbf898473	-1.0743545
15	0x3da3a3fb	0.07990261
16	0x3efc5a46	0.49287623
17	0xbe95cc7d	-0.29257575
18	0xbefcec9f	-0.49399278
19	0x3e94c594	0.2905699
20	0xbe8eae33	-0.27867278
21	0xbe8cd6dd	-0.27507678
22	0xbe921044	-0.28528035
23	0xbea114f7	-0.31461307
24	0x3e13fa03	0.1445084
25	0xbd488983	-0.048959266
26	0x3ee72671	0.45146516
27	0xbe7c19ce	-0.24619219
28	0xbdc6f6a9	-0.097150154
29	0xbde18fd5	-0.11013762
30	0xbec44e06	-0.38340777
31	0xbe7b2442	-0.2452555
32	0x3fbf7d77	1.4960164
33	0x3fcb0c2d	1.5863091
34	0x3fb282ac	1.3946128
35	0x3f9a20b6	1.2041233
36	0xbf2fea69	-0.68717057
37	0xbf867a53	-1.050608
38	0xc0146087	-2.3183916
39	0xbf8ae669	-1.0851566
40	0x3ec6c8cd	0.38825074
41	0x3fa99d1c	1.3251071
42	0x4024aa43	2.572892
43	0x3f8669bc	1.0501018
44	0x3e9376b4	0.288015
45	0xbe948e24	-0.29014695
46	0xbe4d8161	-0.20068885
47	0x3cb23228	0.021752432
48	0x3de0efaa	0.10983212
49	0x3ef97df4	0.48728907
50	0x3df9fdf5	0.122066416
51	0x3e91e1b3	0.28492507
52	0x3eb12473	0.3459812
53	0xbef68e33	-0.48155364
54	0xbbfaa612	-0.0076491917
55	0xbea84494	-0.3286482
56	0x3dd4c75c	0.10389587
57	0x3f16ee10	0.58957005
58	0x3e9cbbdd	0.30612078
59	0x3d35d5c0	0.0443933
60	0xbeb42b86	-0.35189456
61	0xbebe878b	-0.37212786
62	0xbfb7a89d	-1.4348332
63	0xbf6b19ec	-0.9183643
64	0x3e2b8432	0.16749647
65	0x3f036b08	0.5133519
66	0xbe3efd1c	-0.18651241
67	0x3ecd7989	0.40131786
68	0x3e2412dd	0.16022821
69	0x3f01f8e7	0.5077042
70	0x3decf72c	0.11570582
71	0xbef1b6df	-0.47209832
72	0x3d3be678	0.04587409
73	0xbf155c6b	-0.58344144
74	0xbef2f1d1	-0.47450116
75	0xbebaf094	-0.36511672
76	0x3e8b8a1c	0.27253807
77	0xbfb4d600	-1.4127808
78	0xc00da855	-2.2133992
79	0xbf94579e	-1.1589239
80	0x3eb4f59f	0.35343644
81	0x3e1b8fca	0.1519157
82	0xbee6256c	-0.44950426
83	0x3ce0d9de	0.027447637
84	0xbecfb3f3	-0.40566978
85	0x3eebfda5	0.46091953
86	0x402951db	2.645621
87	0x3f2bf622	0.67172444
88	0xbf72e61a	-0.9488236
89	0xbf243be7	-0.64153904
90	0x3f9f18b6	1.2429416
91	0x3e621806	0.22079477
92	0x3df28cb9	0.11843247
93	0xbec6bc44	-0.3881551
94	0x3ea20c43	0.3164998
95	0xbd35a206	-0.04434397
96	0x3ed89bd5	0.4230639
97	0x3e17040e	0.1474764
98	0x3db1b3e1	0.08676887
99	0x3ea4ba30	0.321733
100	0xbd6cd286	-0.05781796
101	0xbf1b5972	-0.6068336
102	0xbacf5d4c	-0.0015820651
103	0xbe8a99d5	-0.2707049
104	0xbd45c039	-0.04827902
105	0xbdbe5286	-0.09293084
106	0xbf40153e	-0.75032413
107	0xbd9bef4d	-0.076140024
108	0x3f606f96	0.87670267
109	0x3fc81284	1.563065
110	0x4028c17f	2.63681
111	0x3f9a1bcb	1.2039732
112	0xbe85207e	-0.26001352
113	0x3ea7a8bd	0.32745925
114	0xbeaf377f	-0.34222028
115	0xbdbf38cd	-0.09337006
116	0x3da82588	0.082102835
117	0x3d7058fa	0.058678605
118	0xbd204b9f	-0.039134618
119	0x3e8cfa77	0.2753484
120	0xbe621682	-0.22078899
121	0xbfb4a852	-1.4113867
122	0xc004bf42	-2.0741735
123	0xbf912bf2	-1.1341536
124	0x3e635c2a	0.22203127
125	0x3eb3a976	0.35090226
126	0x3ef6123b	0.48060784
127	0x3da78fbf	0.08181714
128	0xbe02597c	-0.12729448
129	0x3bc57180	0.006025493
130	0xbe755980	-0.23959923
131	0xbd6deaa0	-0.058085084
132	0xbef42f87	-0.4769251
133	0x3dc729c6	0.097247645
134	0x3eccf449	0.40030125
135	0xbebd314f	-0.36951682
136	0xbe118dfa	-0.14214316
137	0x3f36dbfe	0.7142943
138	0x3f0cac68	0.5495057
139	0xbd56ef40	-0.05247426
140	0x3e631370	0.22175384
141	0xbe394b4b	-0.18095128
142	0x3e167c6b	0.14695899
143	0x3d937e53	0.07201829
144	0xbece238d	-0.40261498
145	0xbea31f43	-0.31859788
146	0xbe3a7f61	-0.18212654
147	0xbe5dc7ca	-0.21658245
148	0xbdc66a72	-0.096882716
149	0xbedbee4a	-0.42955238
150	0xbe9fb099	-0.3118942
151	0x3d8639aa	0.06553967
152	0x3f99eb60	1.2024956
153	0x3f7ab1bc	0.9792745
154	0x401db977	2.4644449
155	0x3f986de3	1.1908535
156	0x3ee9912f	0.4561858
157	0x3e706575	0.23476203
158	0xbeef2f67	-0.46715853
159	0x3cbfa402	0.023393635
160	0xbecdf330	-0.402246
161	0xbebc3c6d	-0.3676485
162	0xbe5dd520	-0.21663332
163	0xbe8c8f13	-0.27452907
164	0x3eb9eab2	0.3631187
165	0xbee0a838	-0.4387834
166	0xbf0fa5c9	-0.56112343
167	0x3e4892c1	0.19587232
168	0xbf083ae3	-0.53214854
169	0x3f13b803	0.57702655
170	0x402d2a40	2.7057037
171	0x3f906c2e	1.1283014
172	0x3f35d5ac	0.7102916
173	0xbe574d1b	-0.21025507
174	0xbfd6d0e3	-1.6782497
175	0xbf41aa60	-0.75650597
176	0xbe45f5c2	-0.1933203
177	0x3d248e7d	0.04017495
178	0xbeffbc65	-0.4994842
179	0x3d312c96	0.04325541
180	0x3e7c1c69	0.24620213
181	0xbf1f0d09	-0.62129265
182	0xbf87b154	-1.0600991
183	0x3eaa9592	0.33317238
184	0xbe290285	-0.16504867
185	0x3f0a6ef2	0.5407554
186	0xbdff6194	-0.124697834
187	0xbd995849	-0.07487542
188	0xbe8fa623	-0.2805644
189	0x3ed1f5f6	0.41007966
190	0x3ecddec1	0.4020901
191	0xbd8b1de3	-0.0679281
192	0xbd99d175	-0.07510654
193	0xbfa0817e	-1.2539518
194	0xc03193c0	-2.774643
195	0xbf85f829	-1.0466357
196	0x3e13d557	0.14436851
197	0xbdb1ebb4	-0.08687535
198	0xbe3c8bc1	-0.18412687
199	0xbe641e80	-0.2227726
200	0xbe71ff09	-0.23632444
201	0xbe4c0112	-0.19922283
202	0xbf33d8ff	-0.70252985
203	0xbebb282b	-0.36554083
204	0x3e58c7de	0.21169993
205	0xbea431f0	-0.3206935
206	0x3d99a436	0.07502024
207	0xbeb7740c	-0.35830724
208	0xbe28b0ad	-0.16473646
209	0x3e7b558b	0.24544351
210	0xbf0f7a7d	-0.5604628
211	0x3ead3ef5	0.33837095
212	0xbe94d466	-0.29068297
213	0xbeaeea25	-0.34163013
214	0xbe81597c	-0.25263584
215	0x3d989aca	0.07451399
216	0xbd96fd16	-0.07372491
217	0xbdd0b107	-0.10190015
218	0xbf3a3a1b	-0.7274491
219	0x3e8b32a0	0.2718706
220	0xbe947f1a	-0.2900322
221	0xbf17b2ec	-0.5925739
222	0xbeb3efe5	-0.35143963
223	0xbedf8781	-0.4365807
224	0xbfe38f2e	-1.777807
225	0xbf6e6d4b	-0.9313552
226	0x3ebfec28	0.3748486
227	0xbc0e1b6c	-0.00867353
228	0xbeb4265b	-0.35185513
229	0xbe11b01c	-0.14227337
230	0xbf11afb4	-0.56908727
231	0xbe834aac	-0.25642908
232	0xbeb6347d	-0.3558692
233	0x3e7bef8e	0.24603102
234	0xbf0e7624	-0.5564902
235	0x3edbb2ec	0.42909944
236	0xbe61a8a0	-0.22036982
237	0xbf006e26	-0.50168073
238	0xbe5f5a85	-0.21811874
239	0xbe387408	-0.18013012
240	0xbdf7798c	-0.1208373
241	0xbabbef40	-0.001433827
242	0xbeb873b8	-0.36025786
243	0xbe8a9264	-0.27064812
244	0x3b346939	0.0027528538
245	0x3df6c3bf	0.12049054
246	0xbe53ca6b	-0.20682685
247	0xbe3db4b4	-0.18525964
248	0xbf84bca2	-1.0370066
249	0xbeb0a7ca	-0.34503013
250	0x3e59dd1f	0.21275757
251	0x3e995856	0.29950207
252	0x3ea180eb	0.3154367
253	0x3ec6be3a	0.38817006
254	0x3aff257f	0.0019466131
255	0xbdd7b674	-0.10532847

fc1.bias f4 [256]
0	0xbee2f224	-0.44325364
1	0xbd1e803b	-0.03869651
2	0x3de6e1f9	0.112735696
3	0x3c4ce8ec	0.012506705
4	0x3f96a346	1.1768577
5	0x3fa471c7	1.2847222
6	0x3f884a0e	1.06476
7	0x3f9f0b7d	1.2425381
8	0x3d462501	0.048375133
9	0xbd131bb0	-0.035915077
10	0x3dc5f089	0.09665019
11	0x3f7b4951	0.98158747
12	0x3f69a18d	0.9126213
13	0x3fa16de7	1.2611665
14	0x3f81808f	1.0117358
15	0x3e42125a	0.18952313
16	0x3f88b48a	1.0680096
17	0x3f0b9648	0.54526186
18	0x3f6611ff	0.8987121
19	0x3bad356e	0.0052859103
20	0x3f37eb7b	0.7184369
21	0xbdb2377b	-0.08701988
22	0xbe6ac78f	-0.22927688
23	0x3fab043a	1.3360665
24	0x3f8e424c	1.1113982
25	0x3f50bcd5	0.81538135
26	0x3f76bb8f	0.9637994
27	0x3d12b1c7	0.035814073
28	0x3facac98	1.3490171
29	0x3f886253	1.0655006
30	0xbcb6bb2d	-0.02230605
31	0x3f57ed05	0.8434604
32	0xbef9a49a	-0.48758394
33	0x3faf2021	1.368168
34	0x3f360966	0.7110809
35	0x3f998686	1.1994178
36	0x3f71e19f	0.94484895
37	0x3f853a29	1.0408374
38	0xbdd2d0e3	-0.10293748
39	0x3f9f5e58	1.2450666
40	0x3f9c8da5	1.2230726
41	0x3f923340	1.142189
42	0xbe11d031	-0.14239575
43	0xbe4cce16	-0.2000049
44	0x3f9fbf3a	1.2480233
45	0x3f126bf4	0.57195973
46	0x3eb47168	0.35242772
47	0x3f9459ad	1.1589867
48	0x3d34f8f8	0.044182748
49	0x3f8e90ef	1.113798
50	0x3f9f14d0	1.2428226
51	0x3f88fb84	1.0701756
52	0x3f859b5d	1.0438038
53	0x3f9bd588	1.217454
54	0x3f9a1a48	1.203927
55	0x3fa5048b	1.2892011
56	0xbdfa7c74	-0.12230769
57	0x3f4e859b	0.80672616
58	0x3fb0071f	1.3752173
59	0x3f4c2442	0.79742825
60	0x3fa5ee61	1.2963372
61	0x3fad1015	1.3520533
62	0xbe775ca3	-0.24156432
63	0x3f9d2d81	1.2279512
64	0x3e01b924	0.12668282
65	0x3f95f623	1.171574
66	0x3e203f66	0.15649185
67	0xbd89f7c2	-0.06736709
68	0x3f58b7af	0.8465528
69	0xbe08dc33	-0.1336525
70	0x3f824029	1.017583
71	0xbbf27ff5	-0.0074005076
72	0x3fa3134b	1.2740263
73	0x3f5ab399	0.85430294
74	0x3d47ce33	0.04878063
75	0x3f878bde	1.0589559
76	0x3faa6bbf	1.3314131
77	0x3f5ebd67	0.87007755
78	0x3f507960	0.81435204
79	0xbdff375d	-0.124617316
80	0xbdde9ffe	-0.1087036
81	0x3f989b7b	1.1922449
82	0x3f94310e	1.157747
83	0xbedfe745	-0.43731132
84	0x3f9c9f98	1.2236204
85	0x3f9d1fc2	1.2275317
86	0x3dc7e1c8	0.09759861
87	0x3fa49ec9	1.2860957
88	0x3fa0e802	1.2570803
89	0xbea65ffd	-0.32495108
90	0x3f885280	1.0650177
91	0x3f62a3e4	0.8853133
92	0x3d6dee68	0.05808869
93	0x3faa7dc1	1.3319627
94	0x3f7b410e	0.9814614
95	0x3fa8896d	1.3166939
96	0x3fab0466	1.3360717
97	0x3f98ef98	1.1948118
98	0x3f9146f4	1.1349778
99	0x3fa02171	1.2510206
100	0x3f9ab5ec	1.2086768
101	0x3dc77242	0.0973859
102	0xbe25c1ff	-0.16187285
103	0xbe621824	-0.22079521
104	0x3e8dee7e	0.27721018
105	0x3f80c489	1.0059978
106	0x3f90043c	1.1251292
107	0x3f7cebe2	0.9879743
108	0x3ef6be28	0.48191953
109	0xbd6b8533	-0.057500076
110	0xbcc8ecb1	-0.024526926
111	0x3f947c23	1.1600384
112	0x3f92e0ac	1.1474814
113	0x3fa0dfd5	1.2568308
114	0x3ddcbe7f	0.10778522
115	0xbd604fa0	-0.054763436
116	0x3f845829	1.0339404
117	0x3f88f19c	1.0698733
118	0x3d61e09a	0.055145837
119	0xbd5c3996	-0.053765856
120	0xbd759462	-0.059955962
121	0x3f96b438	1.1773748
122	0x3f90f4d3	1.1324714
123	0xbd241943	-0.040063154
124	0x3f89da1c	1.0769687
125	0xbe6aff27	-0.22948895
126	0x3f6a18b2	0.9144393
127	0x3f84ae13	1.0365623
128	0xbdc89550	-0.09794104
129	0x3f8ffde9	1.1249362
130	0xbef9eb00	-0.48812103
131	0x3f9b22d2	1.2120001
132	0x3f699873	0.91248244
133	0xbe3b0cf9	-0.18266667
134	0x3f409ac0	0.7523613
135	0x3f66262d	0.89902
136	0x3fa6c054	1.3027444
137	0xbe2ad533	-0.16682892
138	0x3f6a99c7	0.91640896
139	0x3f5db220	0.8659992
140	0xbf00d541	-0.503254
141	0x3f5970ad	0.84937555
142	0x3fa9d232	1.3267272
143	0x3f82f755	1.023173
144	0x3c4f4d77	0.012652746
145	0x3f81d43c	1.0142894
146	0x3d53b062	0.051681884
147	0x3fac1a43	1.3445514
148	0x3f939ff0	1.1533184
149	0x3f8f30d2	1.1186774
150	0x3f6f3b6c	0.93450046
151	0x3f59122e	0.84793365
152	0x3f6c1df6	0.92233217
153	0x3f72177a	0.9456707
154	0x3f82cb50	1.0218296
155	0x3faed3fd	1.3658444
156	0x3f785ce5	0.97016746
157	0x3f723f77	0.9462809
158	0x3f4e93f0	0.80694485
159	0xba269746	-0.0006354939
160	0x3f8ac0a6	1.0840042
161	0x3f8b4a9f	1.0882148
162	0x3f91ce40	1.1391068
163	0xbe3ada62	-0.18247369
164	0x3f8fb1e0	1.1226158
165	0x3fab8314	1.3399377
166	0xbd399d81	-0.045316223
167	0x3f238ab1	0.638835
168	0x3f9a3de7	1.2050141
169	0x3fa6ef5a	1.3041794
170	0x3f6e29f3	0.9303276
171	0x3f7c4277	0.9853892
172	0x3fab3119	1.3374358
173	0x3dd04e63	0.10171201
174	0x3f67948e	0.9046105
175	0xbe2273ee	-0.15864536
176	0x3ce82476	0.028337698
177	0x3f88f428	1.069951
178	0x3f759b23	0.95939845
179	0x3f92c2f0	1.146574
180	0x3f413061	0.75464445
181	0xbda951d6	-0.08267562
182	0x3d98c8c3	0.07460167
183	0xbf006f09	-0.50169426
184	0xbee8cb70	-0.4546771
185	0x3f6a7985	0.91591674
186	0x3f8c38e5	1.0954863
187	0xbee14a6a	-0.44002086
188	0xbeb964b6	-0.3620965
189	0xbd5bbeeb	-0.05364887
190	0x3f5acfda	0.85473406
191	0x3f76dadf	0.9642772
192	0x3f9ad3cb	1.2095884
193	0x3fa96fd4	1.3237252
194	0x3f971446	1.1803062
195	0x3fa25e99	1.2685119
196	0x3f86d349	1.0533229
197	0x3fa55c5c	1.2918811
198	0x3f97c53d	1.1857067
199	0x3f88448c	1.0645919
200	0xbde1fd1c	-0.11034605
201	0x3f9e13ac	1.2349753
202	0x3fa80f0d	1.3129593
203	0x3eabdbb7	0.33566067
204	0x3fb26b19	1.3938934
205	0x3d249eae	0.04019039
206	0x3e390bbb	0.18070881
207	0x3f94e0d9	1.1631118
208	0x3bf66013	0.007518777
209	0x3f72b9a1	0.948145
210	0x3f9aa268	1.2080812
211	0x3f89b287	1.0757607
212	0xbc9f4fcb	-0.019447228
213	0x3ca923d5	0.020646969
214	0x3c96c67f	0.018405197
215	0xbd59848f	-0.053104933
216	0x3f83ff09	1.0312206
217	0x3fa4986e	1.2859018
218	0xbdc87211	-0.097873814
219	0x3faa2bcf	1.3294619
220	0x3faf9f73	1.3720535
221	0x3f62d726	0.8860954
222	0x3f796ee3	0.97434825
223	0xbef6406c	-0.48096025
224	0x3f7b6bcd	0.98211366
225	0x3f9f87c4	1.2463307
226	0x3dddd983	0.10832503
227	0x3f792d89	0.97335106
228	0x3f429187	0.7600331
229	0xbc8c8eff	-0.01715803
230	0xbd8fa783	-0.07014372
231	0x3dbb7d4a	0.09154756
232	0x3ba8812f	0.005142353
233	0x3d83ae97	0.06429785
234	0xbe0bd28f	-0.1365454
235	0x3fa9bde5	1.3261076
236	0xbce0cd85	-0.02744175
237	0x3fb08fc3	1.3793873
238	0xbdf8bf02	-0.12145807
239	0x3fa019e0	1.2507896
240	0x3f5c3ea5	0.8603309
241	0xbc53a1c3	-0.012916985
242	0x3f7668ba	0.9625355
243	0xbd7df50b	-0.06200127
244	0x3f6a61c4	0.9155543
245	0x3f84d417	1.0377225
246	0xbeb9fc56	-0.3632533
247	0x3da2e571	0.07953919
248	0x3cbcd0e6	0.02304883
249	0xbe455dc2	-0.19274047
250	0x3f669a9d	0.9007967
251	0x3f88c501	1.0685121
252	0xbde37d54	-0.11107889
253	0x3fa71e51	1.3056127
254	0xbe895f92	-0.26830727
255	0x3fab4af0	1.3382244

output.weight f4 [2, 256]
0	0xbd31e596	-0.04343184
1	0xbf83ba39	-1.0291206
2	0xbf108386	-0.5645069
3	0xbf5df63e	-0.8670386
4	0x3ecec4b1	0.4038444
5	0x3f1145fa	0.567474
6	0x3f053f71	0.5204993
7	0x3f1aa53a	0.60408366
8	0xbf95232c	-1.1651359
9	0xbf8165dd	-1.0109211
10	0xbfc6823b	-1.5508493
11	0x3f1cd6c9	0.61265236
12	0x3f192857	0.5982718
13	0x3f0e696a	0.556296
14	0x3f2f2c8a	0.68427336
15	0xbc4efe77	-0.012633911
16	0x3f14cb64	0.5812285
17	0x3ec7437d	0.38918677
18	0x3f1ebef3	0.62010115
19	0xbf940e75	-1.1566912
20	0x3f11ae21	0.56906325
21	0xbf74240e	-0.95367515
22	0xbf209324	-0.6272452
23	0x3f023347	0.50859493
24	0x3f0b9f01	0.54539496
25	0x3f09cc2e	0.5382718
26	0x3f37c377	0.7178263
27	0xbfa1f8e8	-1.2654085
28	0x3f255d7a	0.6459576
29	0x3ef85acf	0.4850678
30	0xbf9e7f6e	-1.2382638
31	0x3f280cc5	0.65644485
32	0x3d34cf60	0.04414308
33	0x3f072e6a	0.528052
34	0x3f116669	0.5679689
35	0x3f0adce1	0.54243284
36	0x3f335410	0.70050144
37	0x3f095c6e	0.5365666
38	0xbf3edef0	-0.74558926
39	0x3f1ce14c	0.61281276
40	0x3f19c41e	0.60064876
41	0x3ebffc21	0.37497047
42	0xbf4753b6	-0.7786211
43	0xbf3f03e7	-0.7461533
44	0x3f0f69e7	0.5602097
45	0x3e503cff	0.20335768
46	0x3f0db705	0.5535739
47	0x3f139667	0.5765137
48	0xbf3fcf4a	-0.74925673
49	0x3f0855dd	0.53256017
50	0x3f1ef572	0.6209327
51	0x3f037c1c	0.5136125
52	0x3f0d0674	0.5508797
53	0x3f0ef5c1	0.5584374
54	0x3f0a4a7c	0.54019904
55	0x3f22d970	0.63613033
56	0xbf49dea3	-0.7885534
57	0x3ee8d4ed	0.4547495
58	0x3f13c092	0.57715714
59	0x3ecca676	0.3997075
60	0x3f181f5d	0.59422857
61	0x3f0bc66b	0.54599637
62	0xbe33e671	-0.17568375
63	0x3f1a558d	0.6028679
64	0xbe9cfccb	-0.30661616
65	0x3f209c9e	0.6273898
66	0xbf5b5fb5	-0.8569291
67	0xbf745164	-0.9543669
68	0x3f3d8794	0.74035
69	0xbf805c7c	-1.0028224
70	0x3edd525f	0.43226907
71	0xbf495db4	-0.78658605
72	0x3f23d80e	0.6400155
73	0x3eebfd82	0.4609185
74	0xbf762485	-0.96149474
75	0x3f209302	0.62724316
76	0x3f13de83	0.577614
77	0x3ef05a42	0.4694386
78	0x3f1d4498	0.6143279
79	0xbfaab794	-1.3337274
80	0xbf6c8c5d	-0.9240168
81	0x3f21bd70	0.63179684
82	0x3f276e25	0.6540244
83	0x3bf2ae0d	0.0074060024
84	0x3f046de0	0.51730156
85	0x3efecd9f	0.4976625
86	0xbfbadaeb	-1.4598058
87	0x3f134233	0.57522887
88	0x3f156cdd	0.5836924
89	0xbacba887	-0.0015537896
90	0x3f1aa124	0.6040213
91	0x3f283646	0.65707815
92	0xbfd13060	-1.6342888
93	0x3f100313	0.5625469
94	0x3f021530	0.5081358
95	0x3eefbf54	0.4682566
96	0x3f14da8d	0.5814598
97	0x3f2626a1	0.64902693
98	0x3f1d99e4	0.61562943
99	0x3f198f3d	0.5998419
100	0x3ee89782	0.4542809
101	0xbfc7f3df	-1.5621299
102	0xbe983b8d	-0.29732934
103	0xbf7bb8aa	-0.9832865
104	0x3dc414dc	0.09574291
105	0x3f169be4	0.5883162
106	0x3efbcc47	0.4917929
107	0x3f06c7c6	0.5264858
108	0x3ebaaf9e	0.3646211
109	0xbf928bd6	-1.1448925
110	0xbfa3a027	-1.278325
111	0x3f2b053b	0.66804856
112	0x3f0a3d22	0.5399953
113	0x3f0a573f	0.54039377
114	0xbfd68f1e	-1.6762426
115	0xbf9aa4c7	-1.2081536
116	0x3f01912c	0.5061214
117	0x3f27c1f3	0.6553032
118	0xbeae63e4	-0.34060585
119	0xbf8d9712	-1.1061728
120	0xbf9434de	-1.1578634
121	0x3f1388c3	0.57630557
122	0x3f1a32e9	0.6023393
123	0xbf8ba50f	-1.0909747
124	0x3f13bba6	0.57708204
125	0xbf543cca	-0.82905257
126	0x3f0f9f1b	0.5610215
127	0x3ef8f8eb	0.4862741
128	0xbf870c4f	-1.0550631
129	0x3f0fc4ac	0.5615947
130	0xbeca66cd	-0.39531556
131	0x3f27ebe8	0.6559434
132	0x3f10194f	0.5628862
133	0xbf0b448e	-0.5440148
134	0x3eb97f1c	0.3622979
135	0x3eca1a5f	0.39473245
136	0x3f2574a0	0.6463108
137	0xbf583f04	-0.84471154
138	0x3f2f6c64	0.68524766
139	0x3ed48208	0.41505456
140	0x3d6c6ad8	0.05771908
141	0x3ede0bf5	0.43368497
142	0x3f1c910c	0.61158824
143	0x3f12fc0b	0.5741584
144	0xbf8314c7	-1.0240716
145	0x3f20c3c8	0.6279874
146	0xbf5111b7	-0.81667656
147	0x3f0b69b0	0.5445814
148	0x3f19075f	0.5977687
149	0x3f220986	0.6329578
150	0x3f01654a	0.5054518
151	0x3ec64751	0.38726285
152	0x3ebb496a	0.36579448
153	0x3f0c4585	0.5479358
154	0x3f21a612	0.6314403
155	0x3f0263ee	0.5093373
156	0x3f17794a	0.5916945
157	0x3f0706d0	0.5274477
158	0x3f0f30d1	0.5593386
159	0xbf784fff	-0.96997064
160	0x3f14ea34	0.58169866
161	0x3f265eeb	0.64988583
162	0x3f055d55	0.5209554
163	0xbf8ee201	-1.1162721
164	0x3f1a1d55	0.6020101
165	0x3f10487e	0.56360614
166	0xbf9e06fc	-1.2345881
167	0x3efdb2b2	0.49550396
168	0x3f0f8dcc	0.5607574
169	0x3f1d34a5	0.61408454
170	0x3efca2a9	0.4934285
171	0x3f167d4c	0.5878494
172	0x3f1f9d95	0.62349826
173	0xbfbe5ee5	-1.487271
174	0x3f0e967e	0.5569838
175	0xbf7d02b1	-0.9883223
176	0xbe8aeb99	-0.27132872
177	0x3f15bf6e	0.58495224
178	0x3f0aca60	0.5421505
179	0x3f231ea1	0.6371861
180	0x3f15c1db	0.58498925
181	0xbf2af327	-0.6677727
182	0xbf14d6e7	-0.58140415
183	0x3caf6368	0.021409705
184	0xbbfb7b82	-0.0076746354
185	0x3f11a08f	0.5688562
186	0x3f1478cf	0.5799684
187	0x3d625b52	0.05526287
188	0xbbb28091	-0.005447455
189	0x3f41379a	0.75475466
190	0x3f20d4f0	0.62824917
191	0x3f121cac	0.57075
192	0x3f0c798c	0.54872966
193	0x3f07453d	0.52840024
194	0x3f1684b2	0.58796227
195	0x3f1fc5c4	0.6241114
196	0x3eee6d3e	0.4656772
197	0x3ee3125c	0.44349945
198	0x3efc602e	0.4929213
199	0x3f0f0f81	0.5588303
200	0xbf337405	-0.70098907
201	0x3f069a79	0.52579457
202	0x3f215a7d	0.630287
203	0x3e2006ad	0.15627547
204	0x3f089bcc	0.5336273
205	0xbf45df48	-0.77293825
206	0xbc110767	-0.0088518625
207	0x3f10a55a	0.56502306
208	0xbf413819	-0.75476223
209	0x3ec65162	0.38733965
210	0x3f027633	0.5096161
211	0x3f035c3f	0.5131263
212	0xbf9b8e23	-1.2152752
213	0xbfa04191	-1.2520009
214	0xbfa9117e	-1.3208463
215	0xbf6a7c4f	-0.9159593
216	0x3f185886	0.59510076
217	0x3f197aad	0.59952813
218	0xbf54c25f	-0.83109087
219	0x3f005549	0.50130135
220	0x3f1dd32c	0.6165035
221	0x3f08e912	0.5348064
222	0x3f169438	0.58819914
223	0xbd11f748	-0.035636216
224	0x3f091294	0.5354397
225	0x3f0c318a	0.5476309
226	0xbfb98ff0	-1.4497051
227	0x3f1cba53	0.6122181
228	0x3eb708fa	0.35749036
229	0xbf85b5a6	-1.044606
230	0xbf84a854	-1.036387
231	0xbfbd7069	-1.479993
232	0xbf75cded	-0.9601734
233	0xbecd3291	-0.40077642
234	0xbf4d860a	-0.8028265
235	0x3f0f3a43	0.55948275
236	0xbf895f2d	-1.073217
237	0x3f0309f0	0.5118704
238	0xbf8a1b82	-1.0789645
239	0x3f0c518e	0.5481194
240	0x3eff6e8e	0.49889034
241	0xbf290911	-0.6602946
242	0x3f153f23	0.58299464
243	0xbfaff099	-1.37453
244	0x3ed53b92	0.4164701
245	0x3f31749c	0.69318557
246	0xbf3cdc9e	-0.73774135
247	0xbf519f6d	-0.8188389
248	0xbfbea3d9	-1.4893752
249	0xbf8a1f0c	-1.0790725
250	0x3ebea985	0.37238708
251	0x3f10ff28	0.5663934
252	0xbe3a8777	-0.18215738
253	0x3f1b9d8f	0.6078729
254	0xbf5ec0fe	-0.8701323
255	0x3f0f9efe	0.5610198

output.bias f4 [2]
0	0x3f14a573	0.58064955
1	0x3f0ccfee	0.55004776
